mossbauer_implicit/mossbauermodel_dim1.npz (npz, 201297 bytes, 5 tensors)

d_opt f8 [1]
-2.965676999448566
00000000: 4a0c d9dc b4b9 07c0

y_obs f8 [1]
0.7142857142857142
00000000: b66d dbb6 6ddb e63f

r_obs f8 [500]
6.108078654617989e-05 0.019864802769341296 0.6246250911356482 1.269284126021859e-14 0.9240776458705788 0.38295425637959446 5.097294251781909e-08 0.8174060546289601
0.0007089692825017835 0.41145608398527866 2.531712849588342e-05 0.46845900573699 0.9926358061273611 3.842432863186396e-39 0.870978970672992 0.2257809451408095
0.037300317012167995 0.2701490978109328 0.06675346945428884 0.0001309631817227986 0.767958265060298 6.127110427835566e-11 0.6908247852778997 0.0003781208798696275
1.2601987554976422e-09 0.6318003635167211 1.0026332676427656 0.9199181972646918 1.6852013824218017e-08 4.113754621131733e-06 0.9877349284977938 0.7377571624460254
0.07893842683053409 1.000000000000001 0.0008898223548099397 0.0710237332825105 0.685226061489393 5.903921394911391e-89 0.9727958466494485 0.00040807825392718996
0.5956275549209235 8.623773408445781e-14 8.763518927128232e-38 0.7190702939295186 2.925759054863746e-07 3.6576339436973656e-05 0.6818723643802355 0.5388430737225819
0.11460642912439174 1.6742906929728713e-11 5.5289211615006275e-08 0.7314308277335916 0.7134144744846277 6.3643677523038655e-93 0.8521030196641554 0.21300327032119087
0.874553318002432 2.137428902606089e-156 2.8095880506370667e-05 0.975641377627259 0.03696767315410364 0.017637725479454767 1.6181292401805858e-17 0.5897335444779702
4.821944284857261e-24 0.9425172894879458 0.29140915447684845 0.6261021148670034 0.8917728128451585 0.6718721831968781 0.33692550036088614 0.5888638161557337
0.9881944266126023 0.9230212295115301 0.0028031919887666254 0.4432477168207645 4.2885945786859386e-08 0.9709056634290746 0.8589497130192713 0.00835340433551146
0.9931016285467529 9.816089556700689e-71 0.9832605830415146 8.49165938132471e-08 0.09708089208318184 1.000000000000001 0.32561991987465666 0.3316532737231841
0.0006373576811638965 0.7453078761333252 0.05349305994899788 0.39287551834230633 0.047046539492080604 0.7478841488025155 1.0033984252099282 4.556040665757918e-05
0.255355952323684 3.525433404775876e-05 0.07124863424129628 0.9414156816355319 2.319490311890714e-55 0.9982604480901525 0.09235825397144087 1.1289231047298198e-70
0.5086616345509059 0.4024091051007774 0.6150174566884038 4.65578218691687e-05 1.5659089148391034e-08 0.9549891862940636 7.909471912926315e-06 0.712460389319259
7.746969354952692e-11 3.015950453939622e-09 0.05246298261214346 0.9438477836820794 0.02500235911638915 0.05642422274084391 2.6036598701537027e-105 0.00011068871846628959
1.7343642594434972e-40 0.36162426567075234 0.3558993576791086 0.9015133090543598 0.9886343985380456 0.28781852906916694 0.7382715029230404 0.004612325857238462
0.5056134440147684 1.739910725490734e-06 4.274146581826087e-16 0.416318959337745 6.296812321046293e-20 0.3162101269208022 0.7315346650373408 6.184070655862007e-05
1.000000000000001 0.6395067657707412 0.8342874079427371 0.00046789126604517483 0.47362339355294014 0.024086910582089248 0.9466191982028346 1.1073408088133094e-11
0.9681400101453512 1.000000000000001 5.717224635316496e-07 0.989934795889702 0.06184033232345928 4.375017357930179e-06 0.03715085635109413 0.8773792908379211
3.142536305186057e-16 0.239618666315413 1.7212537749787773e-42 0.5599803407254851 0.8508963264291287 0.9056257490159745 0.2944945066686614 0.3604220300604482
0.9537732366904725 0.03637158239888303 0.8663479524594783 0.00021010688121104378 0.9937023994426418 0.6069397270195356 0.8304090936783366 0.8906336170063327
0.986355123099698 1.003485692698196 3.398714400709404e-05 0.003350277354744753 0.768253665333547 0.9863579038120723 1.1434160508413746e-132 0.043818071495472025
0.97713544309013 1.000000000000001 0.8932340757464289 9.613712832417233e-102 0.4592884168015408 0.627180648502653 0.4595376860559658 1.93870902298225e-96
2.626849592102322e-62 1.4513135111899671e-67 0.9493653625205034 0.7241380121741716 0.40573643358774863 7.317093178412602e-13 0.006446805805475704 0.9514226338267107
0.7497125863672953 1.911788211124294e-12 0.00126597822435327 2.2449621498569336e-73 0.408462556279538 0.002668763213050503 0.8963526885879204 0.8894964204936974
7.585543022282974e-05 0.07920439038243852 5.106548739445967e-14 0.3784368253044149 7.718213192866679e-20 0.16953775426130843 0.084593834574073 1.0150702422084101
8.346695318884531e-46 0.4457623240653941 0.9992761810526742 0.5321143545220522 0.6980402609170636 0.35786656831626457 1.5361941937771268e-38 0.8123751108051488
0.41161358755689026 0.6103546479724087 0.513653269633532 0.6822268161737356 0.06609779688080347 0.8596701735469037 8.400089702537262e-06 0.6417732579974529
2.316097576062714e-21 6.358428611209769e-13 0.9900241410776871 0.0016382487702702884 1.0111888209575388 0.8906296714249047 0.7489752901224028 1.9985612673048443e-10
0.030917519592208256 0.9350012272302138 0.02827308817219547 0.14435471668351388 0.8019765256071658 0.008603582471370812 0.9530682017414412 1.000000000000001
0.8296427235763777 0.6922103699317707 0.269511274904776 0.9418120204388389 0.9538606180801015 0.0002030672778427164 3.3551847058514197e-08 0.38273580995965756
0.03071274390251485 0.603346851756964 5.231391915448312e-14 0.4330752110602614 0.952885255202728 1.459049690160742e-10 0.8849658736916585 0.8021877302168845
00000000: d837 2aec 0f03 103f 7778 f158 7057 943f
00000010: 3f09 56c2 edfc e33f 32fc 1dc1 ec94 0c3d
00000020: 6052 7f48 0b92 ed3f 3ceb c091 5282 d83f
00000030: bec3 dbf9 aa5d 6b3e 78e1 05be 3028 ea3f
00000040: 4861 ecf0 433b 473f 823f 1de6 4b55 da3f
00000050: cb26 9cd2 038c fa3e 150d 4a7b 3bfb dd3f
00000060: c7fa 842a acc3 ef3f 8618 0edc 91eb f437
00000070: 726a 514a 0fdf eb3f a149 b8d7 63e6 cc3f
00000080: 2538 65f3 0619 a33f 4314 0971 1f4a d13f
00000090: 7061 3360 c116 b13f 9cc1 3a2a 652a 213f
000000a0: 650f 2436 1d93 e83f 2221 ef16 92d7 d03d
000000b0: 181d 8194 3c1b e63f bc1d 1fd0 d0c7 383f
000000c0: 6bb0 52a9 69a6 153e a2f7 5c65 b537 e43f
000000d0: 4684 662e c90a f03f 79e8 8749 f86f ed3f
000000e0: c57d b70c 3f18 523e 454a 8b42 1c41 d13e
000000f0: 3f7a e047 869b ef3f d50d a3e8 b49b e73f
00000100: 6884 a209 4f35 b43f 0500 0000 0000 f03f
00000110: db5f e2f4 5e28 4d3f 7d2e b083 9c2e b23f
00000120: aed7 8e34 5fed e53f 97d1 6cce f510 9e2d
00000130: 8d68 61c1 2421 ef3f ed47 3cc1 6abe 3a3f
00000140: fd6a 9f84 610f e33f f8c2 ff68 1546 383d
00000150: 5ec8 bf06 1ad2 3d38 fa79 7eb4 9f02 e73f
00000160: f243 bb70 6aa2 933e 3677 1974 312d 033f
00000170: d7e5 21fe e5d1 e53f 4111 6ad4 333e e13f
00000180: 9d27 00d1 d856 bd3f bdc1 2e97 b568 b23d
00000190: 1766 a731 e4ae 6d3e 11dd 8c9f e167 e73f
000001a0: aff1 8c97 4ad4 e63f 8411 547f 1a8d ca2c
000001b0: f9f8 488d 6d44 eb3f 623b fcef b043 cb3f
000001c0: 2fb8 6d3d 57fc eb3f b00b caac 9558 9d1f
000001d0: 0d23 f334 ee75 fd3e 2212 3144 7438 ef3f
000001e0: ee84 6946 6ded a23f e6b9 70b8 9f0f 923f
000001f0: af51 dee2 dfa7 723c a962 dce1 18df e23f
00000200: 632d 4924 4751 173b 457d c804 1a29 ee3f
00000210: b8ea 0e95 72a6 d23f 48ed 694d 0709 e43f
00000220: 6638 5423 6789 ec3f dc86 bd17 fa7f e53f
00000230: a342 4ff9 2f90 d53f e5f8 05ee f8d7 e23f
00000240: c97f 0ceb 499f ef3f e080 48d1 6389 ed3f
00000250: ab32 513d b8f6 663f 0966 f1ab 2b5e dc3f
00000260: ae25 ee12 3306 673e d9ba fdc0 a811 ef3f
00000270: 8171 ca1b 847c eb3f 4046 73f3 961b 813f
00000280: facd 0611 7dc7 ef3f 5844 bbe5 edad 6531
00000290: 8c7e f3e5 de76 ef3f e041 4184 6ccb 763e
000002a0: 5153 9018 4bda b83f 0500 0000 0000 f03f
000002b0: 2a6b b2ee f4d6 d43f 8427 10a7 ce39 d53f
000002c0: 95fb be32 8be2 443f 0634 2ee7 8fd9 e73f
000002d0: cf7b 163e 7163 ab3f e578 ab5b df24 d93f
000002e0: b154 04e9 7b16 a83f 1bb7 09bd aaee e73f
000002f0: 1727 d281 eb0d f03f 00f6 16a7 03e3 073f
00000300: 166d 047e c057 d03f 3657 b8b1 c17b 023f
00000310: eb76 f3b9 593d b23f f61d 92c7 1320 ee3f
00000320: 804a e3e3 debf 9634 1600 2ee5 bff1 ef3f
00000330: 2cb0 5260 caa4 b73f dfbe a18f d4ee 6831
00000340: 8e08 a4c3 f446 e03f 4f4f 811e 12c1 d93f
00000350: eb43 de16 39ae e33f c595 1294 e268 083f
00000360: 66f1 3670 56d0 503e 3c55 657b 458f ee3f
00000370: 3581 cf8a 5d96 e03e eb4a faba 79cc e63f
00000380: ff1d 98ee 714b d53d ed9f e52a 25e8 293e
00000390: 43b9 2395 6ddc aa3f b321 6a44 0034 ee3f
000003a0: 6034 e9ea 379a 993f d08f bfbe a2e3 ac3f
000003b0: 8f19 015b cee2 372a 92b9 11b4 3104 1d3f
000003c0: 1d21 fbe8 8537 ae37 c6bc 9f1a da24 d73f
000003d0: 218c 7919 0ec7 d63f cb82 6970 32d9 ec3f
000003e0: 397d 2d9b e4a2 ef3f c23b 6268 9e6b d23f
000003f0: 7af1 138f eb9f e73f 7102 72cb 5fe4 723f
00000400: 70c3 ce3e fc2d e03f e2a5 ef12 dc30 bd3e
00000410: 776e f5a7 68cc be3c 14dd c346 f8a4 da3f
00000420: 0afd aea3 bc95 f23b 987c 7266 c93c d43f
00000430: e138 c762 bb68 e73f b16e b93f 0f36 103f
00000440: 0500 0000 0000 f03f 4acb 91e4 d676 e43f
00000450: 7084 9281 7bb2 ea3f 582f 8daf e9a9 3e3f
00000460: ec8b 7b7e d84f de3f e6d4 d834 3daa 983f
00000470: 5780 4158 b44a ee3f 2113 0d4a c659 a83d
00000480: a0bf 30c2 00fb ee3f 0500 0000 0000 f03f
00000490: 2a0e 37fe 0e2f a33e 3c99 b0bc 8bad ef3f
000004a0: db59 ce39 89a9 af3f bda7 3b9d a359 d23e
000004b0: 4bba 17e2 6f05 a33f f7c4 0abc 7d13 ec3f
000004c0: ac71 d7cf f4a4 b63c aafc aa0f d3ab ce3f
000004d0: 6f2c ee9a 4f31 4337 6434 3ae4 5beb e13f
000004e0: b896 c9ee 8a3a eb3f 3a0d ced9 e2fa ec3f
000004f0: 6696 bf7c ffd8 d23f 0186 f78f 2711 d73f
00000500: 3857 6c73 4f85 ee3f 9d5e d0c9 4b9f a23f
00000510: 05a4 5857 1fb9 eb3f 1541 ef5d 048a 2b3f
00000520: 1303 72f9 68cc ef3f 7625 c6dc 0c6c e33f
00000530: 58c8 7417 b692 ea3f 1a55 3812 1280 ec3f
00000540: 7791 7e9e 3890 ef3f 5448 8203 470e f03f
00000550: 39de 3e60 add1 013f 9020 7a75 0a72 6b3f
00000560: 8878 f4b5 8895 e83f 51c4 6073 3e90 ef3f
00000570: c990 2aec a1f8 8924 b2fb 1780 526f a63f
00000580: dcb4 7a8c b144 ef3f 0500 0000 0000 f03f
00000590: 4d1e e0a0 5f95 ec3f cfa6 725f 4288 f52a
000005a0: f107 663e fb64 dd3f 4c18 c026 dd11 e43f
000005b0: eef3 38c1 1069 dd3f ac46 d055 7190 102c
000005c0: da67 847f ca9c 2533 a039 bf36 474d 0f32
000005d0: 4662 ff77 3361 ee3f 3683 027b 232c e73f
000005e0: 0b86 43f2 95f7 d93f 04dd b8d0 a6be 693d
000005f0: 5526 9241 f767 7a3f 8cb7 1ee1 0d72 ee3f
00000600: 841b fb3f a5fd e73f 2f78 d4de f6d0 803d
00000610: 3202 8cc4 e5bd 543f 11c8 46b0 b862 d930
00000620: 7e1d 3722 4024 da3f aaf4 1057 cddc 653f
00000630: 5956 65d5 ebae ec3f 6bbe 7d32 c176 ec3f
00000640: 2464 3d5e 92e2 133f 9766 642a bd46 b43f
00000650: 3fbc 34f4 4fbf 2c3d b235 1217 4f38 d83f
00000660: d344 ba8d b7c7 f63b 5bab fec2 69b3 c53f
00000670: 495a f008 f1a7 b53f c3d8 564b ba3d f03f
00000680: 97cd edc9 7b0f 9336 ad96 e9b2 5e87 dc3f
00000690: 5860 a90a 12fa ef3f 8df0 ccae 1407 e13f
000006a0: 57c3 7d87 5856 e63f bd01 d02d 49e7 d63f
000006b0: 368a fa02 dbe8 1438 7bc2 9f16 fafe e93f
000006c0: 5059 4984 e057 da3f 4c19 8078 0688 e33f
000006d0: 57e7 51fb d86f e03f e773 fd54 cdd4 e53f
000006e0: d4d1 f003 c9eb b03f 0a61 1706 6b82 eb3f
000006f0: 7c73 ac89 c39d e13e 5c7c 5112 6889 e43f
00000700: 1e75 4ff6 fadf a53b 3659 f7d0 295f 663d
00000710: a6bb 851b 47ae ef3f c785 0639 50d7 5a3f
00000720: af7e 4154 d42d f03f 08c0 f3cb 0980 ec3f
00000730: 85cf 1207 9bf7 e73f 0386 abf4 cf77 eb3d
00000740: 4780 169e d7a8 9f3f 678e 95b1 87eb ed3f
00000750: 2ddc 39d4 9ef3 9c3f b5ea 9621 377a c23f
00000760: 3a8f b4ac caa9 e93f 766a be4a c19e 813f
00000770: dfc8 aae2 887f ee3f 0500 0000 0000 f03f
00000780: 44ff a3e5 6e8c ea3f 77e3 995c 9626 e63f
00000790: 42a2 e737 ac3f d13f c276 58f6 5223 ee3f
000007a0: 9015 f3b3 0686 ee3f 27f3 6aa2 ce9d 2a3f
000007b0: fe14 d2ab 5403 623e 2b3a b256 be7e d83f
000007c0: d7e2 865a 2973 9f3f 621a 8e0e 9e4e e33f
000007d0: 852c cef4 3a73 2d3d 6193 0d17 81b7 db3f
000007e0: 6cf6 fd37 097e ee3f 92b4 d020 930d e43d
000007f0: 9d9d b2f3 a351 ec3f 7216 519a 85ab e93f

b_obs f8 [500, 3, 1]
4.006298649409478 -19.193456589712778 0.0 3.666754311715031 -10.619784182042766 0.0 2.465269481646155 -4.110222403083096
0.0 -127.5646221789517 133.7936375135925 0.0 1.310843885417165 -1.945724289544938 0.0 -6.261100357271283
7.421764875415291 0.0 3.7948467333062377 -28.821544664052222 0.0 -2.604368242855746 3.363848519018943 0.0
-32.31334719270661 35.08630836932569 0.0 -6.529798290434676 7.898443425724625 0.0 -45.1613047534524 48.40818552891644
0.0 -5.683205693157168 6.894858615302082 0.0 0.39414037575192457 -0.5621445468285835 0.0 5.163643870937129
-131.06569948303587 0.0 1.1763334603631654 -1.8402592693420756 0.0 3.3444968248626603 -6.765761581468681 0.0
-16.518377226760506 18.521473282728866 0.0 -8.132476199354953 9.55317291750031 0.0 3.679923942994067 -8.941342128884644
0.0 4.494735808760247 -18.809462194009257 0.0 -2.994484811001188 3.8226508898490072 0.0 -95.81779700955992
101.22291794069812 0.0 -3.5393477674973823 4.437270198532905 0.0 -35.65265284199212 38.881298703157455 0.0
4.544803823922349 -35.05152029384175 0.0 2.2727706134427237 -3.82473340016639 0.0 -0.28704130708429576 0.40553955925318197
0.0 1.072753570262344 -1.6187137388398172 0.0 -73.83830903757321 78.31531871110394 0.0 -53.05658437280443
56.91757394323413 0.0 -0.5216069035565722 0.71297239346438 0.0 1.7391797457445122 -2.8606484234307334 0.0
3.7190602384365152 -8.761406326478085 0.0 1.1110903863631442e-15 0.0 0.0 -32.158879399986986 35.18814695688426
0.0 4.260681747031111 -9.667592106541008 0.0 2.0308265255079596 -3.3723662054580297 0.0 3.5057235718759046
-289.32425210500907 0.0 -1.3268110025408546 1.8189219513935222 0.0 4.158901168119908 -16.748133879721884 0.0
-4.332297604409764 5.339821045028238 0.0 -120.50124744262911 126.58741043200429 0.0 -325.1735958252756 335.7843437477183
0.0 2.1732084036493586 -3.5042063888231993 0.0 -62.474390192570006 66.40178789239239 0.0 -44.69778587554662
48.27434763965996 0.0 -3.6695881308163503 4.60134548042474 0.0 -4.8041119255408065 5.860093444387524 0.0
-12.015099909928766 13.788387947901805 0.0 -101.77580336922719 107.74785973700062 0.0 -68.992688502082 73.19480065281363
0.0 -3.5262167375721836 4.498849757297768 0.0 2.0499779375347416 -3.3427389161047483 0.0 4.486096937545383
-303.486113967176 0.0 -2.277437011448144 2.9643448339182377 0.0 -9.167998819685177 10.670171483881301 0.0
-2.4345483167475144 3.220708820091292 0.0 -1304.5095792262541 1324.492271729928 0.0 4.4151678407042185 -20.853077607981604
0.0 -0.9561745787698638 1.3041201288110424 0.0 3.797352444650999 -9.933089447993149 0.0 -19.73937793020859
21.98232785338449 0.0 -152.86095610693576 159.87759230517977 0.0 -4.692938502092845 5.830795653859115 0.0
-207.31592079208224 215.0778780997749 0.0 0.7998166405708357 -1.2026247185606762 0.0 3.3232393443605655 -6.378772840404364
0.0 2.434558425057985 -4.063920312833303 0.0 1.0466797501264027 -1.625713072323709 0.0 -3.626205151944534
4.51992518854587 0.0 2.8219268862760085 -5.47374845713236 0.0 2.4979723226685615 -4.238545719369393 0.0
-0.8649942537671744 1.194365817738952 0.0 -1.934169357130727 2.5956928381175923 0.0 -27.491924918001857 30.26089976404174
0.0 2.8021349378355387 -5.062065992022492 0.0 -69.90340633274656 74.114158529634 0.0 -0.9919701869753755
1.3474219045374864 0.0 -2.104726616402161 2.733754402940373 0.0 -22.670803820121165 25.040004782470195 0.0
-1.2701079523650032 1.7684599480136876 0.0 5.867089949702219 -233.89325220991694 0.0 -1.0579468525686755 1.457492047434891
0.0 3.9717775674647253 -28.354723430483737 0.0 3.565028557014855 -8.256134972435929 0.0 1.1110903863631442e-15
00000000: 06e4 3427 7306 1040 1703 fe5e 8631 33c0
00000010: 0000 0000 0000 0000 af43 da48 8355 0d40
00000020: 51e7 305a 543d 25c0 0000 0000 0000 0000
00000030: 14fa bb34 dfb8 0340 1c1d 4224 de70 10c0
00000040: 0000 0000 0000 0000 674c 10c5 22e4 5fc0
00000050: 46b8 7f7a 65b9 6040 0000 0000 0000 0000
00000060: e573 2070 37f9 f43f b20d eaca af21 ffbf
00000070: 0000 0000 0000 0000 f9d0 5de4 5d0b 19c0
00000080: 6f0a aa21 e3af 1d40 0000 0000 0000 0000
00000090: d20f a79a d85b 0e40 bf4e 48c0 50d2 3cc0
000000a0: 0000 0000 0000 0000 8a73 6e04 bfd5 04c0
000000b0: 3d13 8f69 29e9 0a40 0000 0000 0000 0000
000000c0: f17b c4c2 1b28 40c0 fecf 1327 0c8b 4140
000000d0: 0000 0000 0000 0000 1793 6b71 831e 1ac0
000000e0: 832c ab8d 0198 1f40 0000 0000 0000 0000
000000f0: 3a62 58a2 a594 46c0 c3b2 646c 3f34 4840
00000100: 0000 0000 0000 0000 4634 f245 9abb 16c0
00000110: ae10 1dd1 5594 1b40 0000 0000 0000 0000
00000120: 8bcf f88d 9839 d93f ba1c 888f 16fd e1bf
00000130: 0000 0000 0000 0000 9876 4742 92a7 1440
00000140: 1a60 cd35 1a62 60c0 0000 0000 0000 0000
00000150: 7634 d708 43d2 f23f d9c2 1fb4 b371 fdbf
00000160: 0000 0000 0000 0000 42e3 228d 87c1 0a40
00000170: d0c3 d3cd 2310 1bc0 0000 0000 0000 0000
00000180: 74ed b35e b484 30c0 e90e e745 7f85 3240
00000190: 0000 0000 0000 0000 af74 9feb d343 20c0
000001a0: bb64 0b7b 391b 2340 0000 0000 0000 0000
000001b0: 436a d7f6 7b70 0d40 29d0 7398 f7e1 21c0
000001c0: 0000 0000 0000 0000 3824 1b06 9cfa 1140
000001d0: 409e 12ea 38cf 32c0 0000 0000 0000 0000
000001e0: 64f3 dc73 b4f4 07c0 0e6a 5ffd c994 0e40
000001f0: 0000 0000 0000 0000 e5b4 44c9 56f4 57c0
00000200: 5e3f 9c49 444e 5940 0000 0000 0000 0000
00000210: 3093 f48f 9550 0cc0 65db 48c2 c3bf 1140
00000220: 0000 0000 0000 0000 b2ff d920 8ad3 41c0
00000230: c408 5a65 ce70 4340 0000 0000 0000 0000
00000240: ceed b90d e12d 1240 b890 8c37 9886 41c0
00000250: 0000 0000 0000 0000 f05e 005c a22e 0240
00000260: 7611 2dd3 0d99 0ec0 0000 0000 0000 0000
00000270: 1acd a180 e25e d2bf c681 0e32 5cf4 d93f
00000280: 0000 0000 0000 0000 a61a cfa5 ff29 f13f
00000290: 4772 9e60 40e6 f9bf 0000 0000 0000 0000
000002a0: 5d14 f3da a675 52c0 8800 882e 2e94 5340
000002b0: 0000 0000 0000 0000 7154 1f28 3e87 4ac0
000002c0: 1aed 1e10 7375 4c40 0000 0000 0000 0000
000002d0: f295 04f6 00b1 e0bf e12b 1c7b abd0 e63f
000002e0: 0000 0000 0000 0000 9369 1d24 aed3 fb3f
000002f0: 64e9 ffa3 9be2 06c0 0000 0000 0000 0000
00000300: a782 7fa7 a2c0 0d40 ba61 ce0c d785 21c0
00000310: 0000 0000 0000 0000 fcff ffff ff03 d43c
00000320: 0000 0000 0000 0000 0000 0000 0000 0000
00000330: e279 0129 5614 40c0 7554 1133 1598 4140
00000340: 0000 0000 0000 0000 aca6 e827 f00a 1140
00000350: a052 f1a1 ce55 23c0 0000 0000 0000 0000
00000360: 7b3f 37fa 213f 0040 729f 1422 9bfa 0ac0
00000370: 0000 0000 0000 0000 c02f d0cc b80b 0c40
00000380: c5aa f922 3015 72c0 0000 0000 0000 0000
00000390: d32c 7e2c 9e3a f5bf 0a63 73e7 4d1a fd3f
000003a0: 0000 0000 0000 0000 1d7c e1fc b6a2 1040
000003b0: 626f b2b3 85bf 30c0 0000 0000 0000 0000
000003c0: 94ea bdd2 4554 11c0 288e 4b0c fa5b 1540
000003d0: 0000 0000 0000 0000 ec52 2770 1420 5ec0
000003e0: 69b2 ec21 98a5 5f40 0000 0000 0000 0000
000003f0: 7e84 6a0c c752 74c0 5b94 07ac 8cfc 7440
00000400: 0000 0000 0000 0000 e987 6816 bb62 0140
00000410: 7070 f35b 9d08 0cc0 0000 0000 0000 0000
00000420: cf50 5dd1 b83c 4fc0 4370 90e4 b699 5040
00000430: 0000 0000 0000 0000 af8a 2d0c 5159 46c0
00000440: 8309 ced2 1d23 4840 0000 0000 0000 0000
00000450: ff2a 9d05 515b 0dc0 3016 101c c767 1240
00000460: 0000 0000 0000 0000 dd15 da1d 6937 13c0
00000470: f997 fc55 bc70 1740 0000 0000 0000 0000
00000480: 19a2 e62c bb07 28c0 fd98 c995 a793 2b40
00000490: 0000 0000 0000 0000 46bd 2cc3 a671 59c0
000004a0: 6c1a 16ef dcef 5a40 0000 0000 0000 0000
000004b0: ade3 5a35 883f 51c0 bc44 289d 774c 5240
000004c0: 0000 0000 0000 0000 bed7 f31e b135 0cc0
000004d0: 87d8 8478 d2fe 1140 0000 0000 0000 0000
000004e0: b0dd 39d5 5a66 0040 1ce4 9de6 edbd 0ac0
000004f0: 0000 0000 0000 0000 d0c5 4565 c3f1 1140
00000500: 6572 701f c7f7 72c0 0000 0000 0000 0000
00000510: 43f5 56e5 3038 02c0 8bf6 9d6c fab6 0740
00000520: 0000 0000 0000 0000 fea0 f8f0 0356 22c0
00000530: c6f6 7bb7 2057 2540 0000 0000 0000 0000
00000540: 0bb3 c777 f479 03c0 c6d8 61fc 02c4 0940
00000550: 0000 0000 0000 0000 eefd 22cf 0962 94c0
00000560: 2593 1416 f8b1 9440 0000 0000 0000 0000
00000570: c5b3 28c2 21a9 1140 1c3b 4b4b 63da 34c0
00000580: 0000 0000 0000 0000 17a9 226e fb98 eebf
00000590: 9ec7 7411 addd f43f 0000 0000 0000 0000
000005a0: 254b 8951 fa60 0e40 1dbf 6ee6 bddd 23c0
000005b0: 0000 0000 0000 0000 4ca1 3ddf 47bd 33c0
000005c0: 7c3c 94d6 79fb 3540 0000 0000 0000 0000
000005d0: 9452 d2f3 8c1b 63c0 fd3e 753c 15fc 6340
000005e0: 0000 0000 0000 0000 1283 b2ab 91c5 12c0
000005f0: 72ef 8b18 bc52 1740 0000 0000 0000 0000
00000600: d4c3 eb05 1cea 69c0 7373 36fa 7de2 6a40
00000610: 0000 0000 0000 0000 e38b 4111 1998 e93f
00000620: d944 b96a f33d f3bf 0000 0000 0000 0000
00000630: 0f79 6682 fe95 0a40 5e99 0807 dd83 19c0
00000640: 0000 0000 0000 0000 3d9a 7ec4 f979 0340
00000650: 2fad 9453 7441 10c0 0000 0000 0000 0000
00000660: 87da 0244 33bf f03f d0f5 e4b5 eb02 fabf
00000670: 0000 0000 0000 0000 0482 c1d8 7702 0dc0
00000680: 41af c444 6714 1240 0000 0000 0000 0000
00000690: 8c11 4267 4e93 0640 e1a7 c750 1ee5 15c0
000006a0: 0000 0000 0000 0000 a565 c1e9 d8fb 0340
000006b0: 5a2b 3d54 45f4 10c0 0000 0000 0000 0000
000006c0: d60d e56d 08ae ebbf b262 ea54 1f1c f33f
000006d0: 0000 0000 0000 0000 3ed4 5c91 5bf2 febf
000006e0: 6f69 519b fac3 0440 0000 0000 0000 0000
000006f0: cce7 9aca ee7d 3bc0 e817 b253 ca42 3e40
00000700: 0000 0000 0000 0000 6edc e7b8 c56a 0640
00000710: bbb8 373a 8e3f 14c0 0000 0000 0000 0000
00000720: 5489 cb68 d179 51c0 99d5 935f 4e87 5240
00000730: 0000 0000 0000 0000 dd51 f542 38be efbf
00000740: cc70 5e45 0a8f f53f 0000 0000 0000 0000
00000750: 81be 83e8 7ad6 00c0 3666 dfa0 bade 0540
00000760: 0000 0000 0000 0000 c873 95cc b9ab 36c0
00000770: a164 e0c0 3d0a 3940 0000 0000 0000 0000
00000780: 64c1 5cb7 5c52 f4bf 0a13 90a8 9c4b fc3f
00000790: 0000 0000 0000 0000 30a5 826d e677 1740
000007a0: 8995 a885 953c 6dc0 0000 0000 0000 0000
000007b0: 7c04 cbad 59ed f0bf 649b 5e2e e351 f73f
000007c0: 0000 0000 0000 0000 bcfa 3951 33c6 0f40
000007d0: 760d 9d27 cf5a 3cc0 0000 0000 0000 0000
000007e0: 9f7a 2db1 2d85 0c40 c7f2 831f 2483 20c0
000007f0: 0000 0000 0000 0000 fcff ffff ff03 d43c

prior_samples f8 [500]
0.10276471820853955 0.15750266827147189 -0.321076484079903 1.7102022718794512 -0.41536528533162925 -0.9262265529822529 -0.06990093352612392 -0.6828515252231239
-1.3576498795723164 0.8675880186437488 1.4854069852391594 -0.860009609699811 -0.4699613157731857 -0.04055509645308176 0.3813761881327941 -0.23605761072121334
-1.1696926684132565 0.9537831092130828 -0.18998576847656468 0.12154043043972751 -0.7111950078161113 -1.6127313687608775 0.7591417346069563 1.2975451414554589
-0.07892929889191078 0.3209645615584868 -0.5045407507250176 -0.40925223087761936 -1.5729242308855773 -1.4771695918297627 0.5428281253855464 0.3462517905973307
-0.20011426915107675 -0.49027576578625154 1.291196732226327 0.20555661099046527 -0.3294542530861523 -0.006775515842136848 -0.5765749399113294 -0.1194057076940654
0.8039543778804373 1.6859701804492955 -2.0134143831950873 0.345823946351024 1.541120572429855 -1.395185494258029 -0.7607831223028771 -0.8449062576138332
1.054355146301876 -1.5321566834355362 -1.5944794086258083 0.742865611238769 0.34327466759535397 -0.019663622871646518 -0.658921510458075 0.9858085289391018
-0.6414471946584213 -2.946163588061252 0.10936927430288178 -0.5613161090368914 -0.17703393520778055 -1.1800907445312294 1.75782306834956 -0.7867954556830923
1.9282851298898231 0.41869085169766784 -0.2559915745250682 -0.321185268974697 -0.38998629666798246 0.7709345631015332 0.2547946067386443 0.3140075696403252
0.5437283108526821 0.6191209921431813 1.27654145233705 0.2819920300161387 -1.5872095679299578 0.5679687672227256 -0.6583245451533842 1.241654174549113
-0.5513105773498554 0.030260300331764287 -0.557041008689729 0.0805161080158754 -0.19805164442857093 -0.470305970076052 0.9601695735249417 -0.2615862320949287
0.12638256462744538 -0.35089826541318303 -0.18758708401325488 0.8900047305919275 1.1601403615164 0.7202912523622237 0.5345036234791793 0.08710883076382113
-0.23912006295030702 -1.4246567093766547 0.18077012568484854 0.5991750168126313 2.2862305828185527 0.52629337857143 0.20023816543194142 -2.5611228871346614
-0.8380575465631886 0.2732357646313257 -0.7920763266104243 1.4747232831787844 -1.5388604268614725 0.5976160424870552 -1.4456565931090755 -0.34513275598825255
-1.6796646752063145 -0.07228847719475517 0.18559675865664793 0.5942376548241959 1.1203695823517732 1.1061194403694061 0.00904980706544886 -0.09447285725290552
-2.2232797206550607 0.27788242702549787 0.9163464126278321 0.3993979655125245 0.557190939899651 0.2542818449200138 0.7219456194583066 1.2332563703472232
0.8461856395849046 1.4728782954539297 1.7719375585399146 -0.2852503808730132 -1.8429190798653028 0.9333526487992427 0.7332455869869586 -1.4174090709299196
0.49287000388379565 -0.7658816100426378 -0.6683952766937798 -1.3014797971189425 0.2807846281589479 -1.1755517096204184 -0.5932626213829146 1.6274035144995338
0.573729878987458 0.4922002143450434 -1.5013863781855845 -0.5413727148320026 1.0846562191535902 1.432437447336762 0.16725996801088866 -0.6396056869351286
1.7578717186697297 -0.9295138184468251 -1.952712851244124 0.3061701163357868 0.664480716002187 0.40240391453224855 0.9312522111327792 -0.9062522176654065
0.5820629945825272 1.1337495229818355 -0.6538916267083115 1.2776058975359164 -0.5437799775197114 -0.8016841451823244 -0.6702830382374321 -0.39916150960194147
-0.5504439423279914 -0.5048882071063574 -1.464652879315739 -0.14027748929636533 -0.7087486425807159 0.451453811930978 -0.0015667161377474596 -0.18344613199958237
-0.4489141129549745 0.5001628977123642 0.6297841626296982 -0.004710004724952005 -0.8338301879597113 -0.33054744182371415 0.8370829939396426 -2.5079065149098656
2.2763114911319495 -2.1463525229759433 0.41922457544538355 0.3436769092092912 -0.8747366802601219 -1.7105475699099841 -1.229705306351479 -0.4269190637580235
-0.35337668767584823 1.653336125619038 -1.3182943080115073 -2.4878623865198968 -0.8972353703136192 -1.2972013024930702 0.6299916784103768 0.39537499266158643
-1.3617631677214241 0.18349120935649785 -1.7294853110427588 -0.9042883347380787 0.05458320902210586 -0.2113376482735449 -1.0428198992650026 -0.5076519217300772
0.04318981779088119 -0.8604334718631655 -0.5281368094843718 -0.823392201694229 0.7386201157462979 -0.2706139668981525 -2.118577874053887 0.6796762675968986
0.9000953008313516 -0.7694937259751475 -0.8289963209109048 -0.7431654507973642 -1.0896063674801146 0.389902314228198 -1.4122226328465532 -0.784473943201145
-1.879570156763472 1.6380744052935015 -0.4571825628031539 1.2468701185021251 -0.5004895691508876 0.39500139104413284 0.7163449972370869 -0.06921807304848492
0.1644576068658772 -0.6015954960048668 -1.158628378258203 -0.21481087516434907 0.6893096155674525 -0.15400713807701058 -0.5884631131077876 -0.45081457840636935
0.3760895555725724 -0.3295769636967238 0.9314465516794553 -0.4156670257088737 0.4282003247744674 0.10488710749166785 0.07352128432053766 0.8933087794607085
-1.1530345715741992 0.3129222233154992 1.7503222151445976 -0.2855792390532582 0.4246808236651741 -1.6646564642120445 -0.6359163920779403 -0.36995109738913784
00000000: cc69 e3df c94e ba3f 5d1d a124 0c29 c43f
00000010: 81d2 a861 848c d4bf 3846 b40e fd5c fb3f
00000020: d527 1947 5895 dabf dadb 37de a5a3 edbf
00000030: d85e 740f 07e5 b1bf d76c 1b71 ebd9 e5bf
00000040: 2be7 8214 efb8 f5bf 2c3e cff2 47c3 eb3f
00000050: 62a2 6d1d 3ac4 f73f 5501 7ddf 3285 ebbf
00000060: ac61 68a0 d813 debf 317b e739 a3c3 a4bf
00000070: 3f39 e0ab 7768 d83f 507f 02c3 2237 cebf
00000080: 674b d3a8 0fb7 f2bf 3284 b127 6485 ee3f
00000090: 90f8 2723 7451 c8bf 6861 e10d 461d bf3f
000000a0: d8c1 7408 1cc2 e6bf 06fb 6068 bfcd f9bf
000000b0: 814c 659b e34a e83f 8228 bab1 bec2 f43f
000000c0: fedc 6fe5 b534 b4bf 3f65 c4f1 ae8a d43f
000000d0: a79f fba4 3225 e0bf 7bcd db44 3031 dabf
000000e0: 06d5 2b99 b22a f9bf 3bdf f894 7ca2 f7bf
000000f0: 3728 bc16 d95e e13f a601 3345 fd28 d63f
00000100: a3c0 bb28 589d c9bf 0cb1 049b ad60 dfbf
00000110: 88d3 99e7 bda8 f43f 4b1f d7d4 ad4f ca3f
00000120: d21e a24a c715 d5bf 67c2 49af a4c0 7bbf
00000130: 2a98 d349 4d73 e2bf 7572 8059 5f91 bebf
00000140: c11e 0f88 feb9 e93f 9ff9 30de bbf9 fa3f
00000150: 88f3 0800 791b 00c0 6815 f0c2 fa21 d63f
00000160: e476 9c0b 6ea8 f83f bd11 5b06 ae52 f6bf
00000170: d077 b4d8 5558 e8bf a763 14d9 7809 ebbf
00000180: 0ec6 7b80 a3de f03f 5841 fbb9 b683 f8bf
00000190: 9f17 23d7 fc82 f9bf 78fe 321a 8ec5 e73f
000001a0: 1c82 b74f 36f8 d53f 4e4f 9e64 b322 94bf
000001b0: 1e8c 4190 e215 e5bf 7729 fd53 be8b ef3f
000001c0: 5867 6544 bc86 e4bf dd1c 1b37 be91 07c0
000001d0: ff70 51f0 9fff bb3f 6201 6133 4df6 e1bf
000001e0: e8f2 ff48 0ca9 c6bf c82e 21d5 a6e1 f2bf
000001f0: a473 eb14 0b20 fc3f 0c9c d9a9 6d2d e9bf
00000200: a4d6 2382 41da fe3f 7241 cbb6 d4cb da3f
00000210: efbf 287c 2a62 d0bf a802 8da8 4c8e d4bf
00000220: d6ef 8415 89f5 d8bf 7a11 fcf5 7eab e83f
00000230: 2af0 c809 8e4e d03f 0f4e 9334 b318 d43f
00000240: e1b0 20ea 3866 e13f 86b4 b0d3 d6cf e33f
00000250: 626a dcba b66c f43f d0b9 a94c 280c d23f
00000260: f484 22dc 3565 f9bf 96df 0bd6 cc2c e23f
00000270: c1cf f2a2 fe10 e5bf c615 8ac4 d0dd f33f
00000280: 1c02 7514 56a4 e1bf 3c13 2b61 8efc 9e3f
00000290: b94d 5baa 47d3 e1bf 31b9 ba22 b49c b43f
000002a0: 90af de9b c159 c9bf cec5 2536 7e19 debf
000002b0: afec 9c8a b5b9 ee3f 149f fb2d d4bd d0bf
000002c0: 9503 eeca 4d2d c03f 520e 8bff 1d75 d6bf
000002d0: 6595 7e83 da02 c8bf 0faf 6533 eb7a ec3f
000002e0: 8cb8 f756 ef8f f23f 45b3 8f3d a00c e73f
000002f0: 68f8 cd57 a71a e13f 07cb 52ab c34c b63f
00000300: 2232 1879 7c9b cebf 9bcb 6cd5 64cb f6bf
00000310: 8d82 f4b8 7923 c73f ca4b b915 712c e33f
00000320: cd90 8242 334a 0240 b719 2236 65d7 e03f
00000330: 197a f879 67a1 c93f 673e 0aff 2d7d 04c0
00000340: e1f4 540f 5ed1 eabf 2c1a 4cdc b17c d13f
00000350: 6448 d773 b058 e9bf 2871 fe70 7798 f73f
00000360: 72a8 671c 2c9f f8bf c97f c1ad ab1f e33f
00000370: 7567 cace 6821 f7bf 7add efb2 a716 d6bf
00000380: 0f1f 0411 e8df fabf 80da 6d65 7f81 b2bf
00000390: 9c42 5674 a2c1 c73f 6cb1 b0af fe03 e33f
000003a0: 0c25 baa7 08ed f13f e7b3 5d4c aab2 f13f
000003b0: 2fb9 0c8b b488 823f b6ca 4288 5f2f b8bf
000003c0: 8896 d0e0 46c9 01c0 a549 0d60 d3c8 d13f
000003d0: 0764 41b6 b552 ed3f 4ec6 fd7b bc8f d93f
000003e0: 59e3 0f18 82d4 e13f e278 f95b 2746 d03f
000003f0: 5f0b 22b3 2d1a e73f 8d99 2308 6bbb f33f
00000400: 9295 0be8 f313 eb3f d967 dfd4 e890 f73f
00000410: 72ba 8732 db59 fc3f 495a 41d0 8a41 d2bf
00000420: 5b22 93b7 987c fdbf 7e49 c75f 06de ed3f
00000430: 2f73 0173 bf76 e73f fb29 4b22 b5ad f6bf
00000440: 140f f7a0 2e8b df3f e6b5 7726 1a82 e8bf
00000450: c56b c67d 7e63 e5bf 3a7d d07a dcd2 f4bf
00000460: 8461 ca16 60f8 d13f b239 394f 0fcf f2bf
00000470: 54ec 98e4 01fc e2bf 40bc 8244 d809 fa3f
00000480: 47a7 5fc3 fe5b e23f bf8d ec53 3580 df3f
00000490: b978 0fb9 ad05 f8bf 51ce 24df ec52 e1bf
000004a0: d0ae ca7a c05a f13f aa08 5e87 43eb f63f
000004b0: fab4 444e c668 c53f 8f1a 7758 a677 e4bf
000004c0: 30ff 6318 3e20 fc3f 2118 6dc3 93be edbf
000004d0: a828 a9d4 4f3e ffbf 9b2e 2b8b 4a98 d33f
000004e0: 74aa 0110 6d43 e53f 5eb2 2c59 fcc0 d93f
000004f0: 3e93 e46f d1cc ed3f d59c 99a6 0400 edbf
00000500: 7133 be92 42a0 e23f 5800 318a d623 f23f
00000510: dee4 fa21 aeec e4bf ed7e b1e1 1271 f43f
00000520: 3a56 7544 a566 e1bf 1ef4 2882 65a7 e9bf
00000530: 9e62 096a f572 e5bf 31fd 63b7 dc8b d9bf
00000540: a28f 529d 3c9d e1bf 5a0d 3550 0b28 e0bf
00000550: 0e74 8adb 376f f7bf dd49 72de 9cf4 c1bf
00000560: 82fe 1ea2 11ae e6bf 3a7a 7987 9ee4 dc3f
00000570: 352b b8a4 48ab 59bf 3009 c2b0 297b c7bf
00000580: 90af 7642 02bb dcbf 3e1c 0b9f 5501 e03f
00000590: c910 c11d 3127 e43f 206f 1f44 cc4a 73bf
000005a0: 358b 76a5 bcae eabf 3732 1a75 b027 d5bf
000005b0: e345 6046 62c9 ea3f a7b4 774a 3110 04c0
000005c0: a15d 8fcc e235 0240 3bf3 1edf ba2b 01c0
000005d0: ffe9 4d50 93d4 da3f df6e 5c6f cdfe d53f
000005e0: cb85 4ac7 d7fd ebbf 2040 f020 675e fbbf
000005f0: caf4 a778 dfac f3bf 2f4c 3856 a452 dbbf
00000600: 0924 2f41 b99d d6bf 0f44 cd94 1074 fa3f
00000610: 1699 b6c5 bb17 f5bf 6869 1865 24e7 03c0
00000620: 59f7 89f3 26b6 ecbf d994 2827 56c1 f4bf
00000630: 7dca f04e e428 e43f f5d0 c8e9 d24d d93f
00000640: 902c e42c c8c9 f5bf 2b13 a5d3 a37c c73f
00000650: e374 1dca f8ab fbbf d356 fb16 eeef ecbf
00000660: 3b44 5293 54f2 ab3f 6ecc dfaf 1c0d cbbf
00000670: 1461 2feb 63af f0bf a8a1 323e af3e e0bf
00000680: 8533 ddcd f91c a63f 2d27 c1c6 ab88 ebbf
00000690: b792 912a 7fe6 e0bf 5cdc 419a 3a59 eabf
000006a0: e889 29a7 c6a2 e73f edc6 6a3e bd51 d1bf
000006b0: a8b9 d8f4 d8f2 00c0 d445 a671 e8bf e53f
000006c0: 7353 0ba9 94cd ec3f 524b 714e b19f e8bf
000006d0: 0e22 da4a 2387 eabf 0823 56e9 02c8 e7bf
000006e0: 7c72 1d16 076f f1bf 3aab 0fd6 28f4 d83f
000006f0: 8ef3 6bc2 7698 f6bf 599e 5319 691a e9bf
00000700: 2563 1d28 b812 febf 6067 f281 8d35 fa3f
00000710: f19f e2a6 7a42 ddbf 6938 d514 2ef3 f33f
00000720: 0bc0 6fb3 0204 e0bf 012e 1aea b347 d93f
00000730: ff2a f957 4cec e63f c70e 0990 46b8 b1bf
00000740: 819f 8865 f20c c53f ae60 9832 4540 e3bf
00000750: 4d62 0de9 bd89 f2bf 65f8 d339 ec7e cbbf
00000760: fec6 f509 d30e e63f ab16 b282 81b6 c3bf
00000770: d568 3698 b0d4 e2bf 412f b463 25da dcbf
00000780: b249 63ed d911 d83f 03ea 25fa c917 d5bf
00000790: 71ed adff 68ce ed3f 387e 5cde 499a dabf
000007a0: 23bf c255 a267 db3f 48e1 72a8 e1d9 ba3f
000007b0: db74 b777 4ad2 b23f ef6d 204b fc95 ec3f
000007c0: cf18 0161 d472 f2bf 353a d5ee ea06 d43f
000007d0: 1722 f8dd 5101 fc3f ae9e 0925 ee46 d2bf
000007e0: 4656 387a f82d db3f 03da 0dd1 6ea2 fabf
000007f0: d4e1 5e55 6d59 e4bf 4df6 195e 47ad d7bf
